weight2.npy (npy, 2880 bytes, 1 tensors)

array f8 [10, 35]
-1.5274649453447426 0.868582905899504 -3.0554262183779026 -3.0214462823117025 -0.2934809123254581 -4.230000662617739 2.354058827755672 -0.6816114326072298
-2.032478531486377 -4.446533370998231 0.6667871201307324 -1.7443486511457498 -0.8330218852478687 3.003067373810612 -0.40112898476490016 -2.5362784696184817
0.9808355912950361 2.215544519281001 -0.42226153787689874 -4.161840097216842 3.8447722142838465 0.13914050922998106 1.3780217511327255 -4.5151384052364865
-2.3096891454418764 1.5075748650322423 2.152931319137828 -1.9149873404028024 -1.7972567411481333 0.16875759524677167 1.9508200263264739 -1.8815966302085243
-0.05847966132324056 0.5014970705534192 0.2730649022078392 3.451703260620391 0.32690767227794887 0.8559254665551467 -1.5092865153603103 3.8701058933647174
2.985189484289434 1.6566310582922907 -2.2931153221236382 3.394267699131707 -0.3624215569882218 1.365549832231525 2.3791130443034585 -3.2076410349252336
0.8956404695786141 -0.44971712051235696 -6.212500283461907 -2.4970979816633565 2.6148197704394525 -0.8097360774395134 0.05710322182946296 0.5155851061147224
1.239990365377654 2.660987897134322 -2.1021837864910613 0.9041911108797331 -0.9275090647953593 0.4378858496294542 -2.769755195501796 -2.7836457873885254
-3.5800514854301086 -0.9918418384607205 -2.3682149983889147 0.013564526774060543 -2.071239224854101 -0.6143554191876699 -0.7627845364517044 -1.9666851197169541
0.44629708537843976 2.029828115636807 0.10826765606481982 -2.847010105706301 -0.0018371364790828182 0.21700116948558903 -1.3581983376674012 -2.643003399500069
1.7151230812885554 -0.3465151116414906 -1.924133870397367 -0.3736039217064792 1.6406563541362238 -1.434305578828127 -1.559592763742407 0.16835245078278635
-0.9091867816806269 5.621549090183246 1.2935707069896292 -0.10091846638261247 -4.509341658377091 -0.9743335788725463 2.534707644692886 2.9799441330568026
-0.215372403741478 1.741955630596113 -3.1027429562889495 4.2078711657290615 -4.083236759462835 0.19973414408741128 -0.9798531282203063 1.2375361721963165
0.5938665392666058 -1.2686089194564305 -2.1002335138813173 0.5772477236118018 2.9764030881434764 2.21393139909365 -3.2922039650250126 1.7639777748699628
-0.3668394368406825 -2.770935032965951 4.789149983567193 0.2298515516019021 -3.5719961257195227 -0.3363317909152831 -0.1000596828576704 1.6853617013468565
0.5183253164736108 1.6004645752131577 2.2981627466610566 -0.19252830321525852 -5.694534461530301 -0.9962992099689437 1.0229220443288691 -1.8019954232542201
-1.7890888382892762 4.624041405158949 -3.338091592155775 3.7868392720610644 0.3143199076431391 -4.718492799489408 -2.5065449950449996 -2.8850431043472247
-2.7587865350432246 -3.4399858021487977 -1.4456412879202019 -2.7538731009146784 -0.7079133922641029 2.9507816443075265 1.9726116899739012 -1.8706324448491731
3.3812987702369153 -0.21250761519914582 5.811507470554404 -0.6528656334529066 2.5192780940603865 -1.4554542651589162 4.733153652880697 0.47688411893954435
-0.25900969003608926 -5.268585136966888 -1.5180871287349496 -2.5516622734985073 0.9257192642213724 -4.406785878912241 -2.539457552712078 -2.3381542293259066
-1.2016137078216091 -3.4891297370604137 -0.1262194232554475 3.583993340341546 0.19355321980986018 0.21670753881213436 -2.082894044220953 2.1827508171072063
-4.5445276116188715 1.2411828192870908 4.009907619999659 -2.754083588457509 0.25475170925406593 -0.8990719555202893 -1.7802083566258378 0.24108934544971297
2.9821312974564718 -1.1074154090082742 -4.4602017816838355 -2.785633640549475 3.8345390940846205 -2.7313456765427953 -1.6736808614289684 -2.0802790763987984
6.047609381182844 -0.7012726069343144 -4.492486588461017 2.3063730498478026 -1.1622479333424367 2.7794241077894157 0.36285795624688266 -1.6982731945471754
0.728083572143009 8.24607173467979 0.3877155394460254 -3.908179399587774 -0.5933925939184818 -0.7960705107356502 -3.720505077428676 -5.957505773800698
-1.969166926534454 1.5769169632732911 -2.0965517329084085 0.7571458819767595 0.3885527976868135 0.8649786140772193 -2.562254696207083 2.286080536050094
0.890027539091233 1.7436377805077006 -1.3736140656715559 -0.20543000230833697 3.1032371249520003 -3.4232283469644647 -2.5649123313851407 -0.6728087056980846
-4.9066731469296085 0.011214007655399953 1.7171930761212981 -0.7144992363039054 1.0668754486480378 3.736601205357795 3.8269738707929117 -3.5863803586712444
-1.5602246835217017 -1.725327960483683 0.12751110607851748 -0.8245208961955938 -1.7784325197203248 -3.081379171103828 1.344156158349441 1.897434146700662
0.00020681336015625462 -3.4820184728889143 0.6441825968334964 3.1395925499456747 -2.312117753320485 -2.691075143749003 -2.4765410695505143 0.18346760965100145
2.921474326368487 -3.16961460893177 2.6221032140891984 -1.2686537817656882 0.11258281354334873 1.270732920519283 1.4528261217789726 -4.770962530334483
1.3715303265557304 -1.2361571577183241 -1.9787812311549293 0.23417084116177536 -0.45011757194964636 -1.2854095206835128 2.386412222410045 -1.3681377837815634
00000000: 6eac 2015 7f70 f8bf 1a7f d660 6ecb eb3f
00000010: 3f31 1a4d 8371 08c0 4532 4907 ec2b 08c0
00000020: 9909 1c2a 64c8 d2bf 8e01 304b 85eb 10c0
00000030: d090 70cb 1cd5 0240 9c16 74c7 c2cf e5bf
00000040: e272 b41a 8442 00c0 470a 440b 40c9 11c0
00000050: 6960 4bf1 5156 e53f 22e2 9721 dae8 fbbf
00000060: 53bd 3f83 1da8 eabf 079c f12f 4806 0840
00000070: 57bf c2e7 18ac d9bf 837b c45d 4c4a 04c0
00000080: 19ae 6b52 0163 ef3f ca26 a967 6fb9 0140
00000090: 778e e241 5506 dbbf 44e9 1269 b9a5 10c0
000000a0: 5859 47ef 17c2 0e40 de84 5830 5bcf c13f
000000b0: d5aa 2489 600c f63f 029e 2d71 800f 12c0
000000c0: d9ca 7c4d 3e7a 02c0 8c5c 59d2 061f f83f
000000d0: 50d9 310e 3439 0140 7e8b f4c3 c9a3 febf
000000e0: c5f2 db48 90c1 fcbf afab 4450 d999 c53f
000000f0: d943 570f 8f36 ff3f 9326 7011 051b febf
00000100: 609c bad1 0bf1 adbf bc22 a295 430c e03f
00000110: 46c2 2a36 e579 d13f 9fe3 5e99 169d 0b40
00000120: 9bb2 4f28 0eec d43f 695f d5cd bd63 eb3f
00000130: e842 fc9d 0926 f8bf 7377 2014 faf5 0e40
00000140: fd16 3b06 abe1 0740 bf73 8e91 8f81 fa3f
00000150: fcd1 93d8 4c58 02c0 691e cdd2 7527 0b40
00000160: db4e a82f ea31 d7bf 0be2 e7c7 4ad9 f53f
00000170: af29 766b 6c08 0340 e57d f2b3 3fa9 09c0
00000180: 2d0e ba33 16a9 ec3f bd51 4351 2ac8 dcbf
00000190: 4070 9fac 99d9 18c0 bb36 b181 0efa 03c0
000001a0: fec5 b7a0 26eb 0440 1fcf 5fa2 5be9 e9bf
000001b0: 05ef 812c a23c ad3f 5328 2256 ac7f e03f
000001c0: 106f 2a23 00d7 f33f 26f3 c905 b449 0540
000001d0: d148 a9bb 45d1 00c0 e2fe 5132 22ef ec3f
000001e0: 8344 817d 27ae edbf 1c8a e25e 5206 dc3f
000001f0: b4d9 7469 7528 06c0 e7da 2315 e844 06c0
00000200: 2a59 7f08 f2a3 0cc0 31c9 5f18 2bbd efbf
00000210: 10d1 7fb4 1af2 02c0 17de 0af7 b7c7 8b3f
00000220: aa86 e7de e591 00c0 5601 31b2 cca8 e3bf
00000230: 018c be1d bb68 e8bf 366d ebd0 8a77 ffbf
00000240: 7f08 80a6 2190 dc3f 884a e985 163d 0040
00000250: 7952 03da 6db7 bb3f db1e fb3b adc6 06c0
00000260: 8008 2446 8219 5ebf a532 11bf b1c6 cb3f
00000270: 7735 1c2e 2ebb f5bf 948e 60f7 de24 05c0
00000280: 4bfc 6be6 2471 fb3f bc7a 04b8 4d2d d6bf
00000290: b4b8 e798 40c9 febf 3fbf 586c 20e9 d7bf
000002a0: b6d5 8fe0 2040 fa3f 3098 1868 eaf2 f6bf
000002b0: 5aa1 b58a 17f4 f8bf 5321 28b7 928c c53f
000002c0: d8c2 a8e0 0e18 edbf 4ac8 5c5d 777c 1640
000002d0: 4b58 9932 77b2 f43f f700 ade8 cad5 b9bf
000002e0: 4ae1 14dc 9009 12c0 03df 149d bd2d efbf
000002f0: 5e04 37cd 1447 0440 9c16 1bf3 ecd6 0740
00000300: 43e9 43ab 5291 cbbf d0e4 07de 0cdf fb3f
00000310: 403e 29e6 6ad2 08c0 d259 ca2d dcd4 1040
00000320: 20df 5e04 3c55 10c0 73ff 5f70 e390 c93f
00000330: 45dd 92f2 f45a efbf 0934 b3ba f2cc f33f
00000340: 38d7 8a66 f400 e33f 14ab c7dd 384c f4bf
00000350: d8aa 803a 47cd 00c0 e34c d337 d078 e23f
00000360: 2d51 1a6c accf 0740 da8e 55aa 21b6 0140
00000370: 065a 4c08 6f56 0ac0 59ff 5ec2 4039 fc3f
00000380: 5148 071e 4c7a d7bf 7f6f 8ffc df2a 06c0
00000390: 793d ecee 1628 1340 c552 8890 c66b cd3f
000003a0: 813b 6bb4 7293 0cc0 2285 a5c6 7586 d5bf
000003b0: 6796 85e9 829d b9bf 6073 d3d4 3df7 fa3f
000003c0: 202d 5ef9 1e96 e03f 1827 0fbe 809b f93f
000003d0: b15b 6e26 a362 0240 8194 ee76 c4a4 c8bf
000003e0: d6de b80a 34c7 16c0 ad1c 7be1 aee1 efbf
000003f0: d1ff 6b81 e35d f03f 65b2 2627 f9d4 fcbf
00000400: 0a75 219e 1ba0 fcbf c107 cab5 047f 1240
00000410: 9be4 5a5d 69b4 0ac0 8daf 6563 724b 0e40
00000420: 08c7 f33e d11d d43f bddf 9093 bcdf 12c0
00000430: b55d 5d76 670d 04c0 eec5 a57a 9114 07c0
00000440: 183f c5ac fe11 06c0 a177 b746 1785 0bc0
00000450: 59d5 55c2 5821 f7bf e919 ce9e ee07 06c0
00000460: 7b97 85fc 39a7 e6bf e280 1f68 339b 0740
00000470: ba52 8246 d18f ff3f 686b 5749 1cee fdbf
00000480: 6c61 a15e e60c 0b40 4f34 b714 7333 cbbf
00000490: a1f6 79d0 fb3e 1740 129a 0b78 46e4 e4bf
000004a0: 0926 fc45 7b27 0440 6ee6 5a69 8a49 f7bf
000004b0: 1a43 c8d4 bfee 1240 7def b4f7 4485 de3f
000004c0: 9d55 0361 9d93 d0bf 9ddb 6dfb 0713 15c0
000004d0: 8952 a6ba 154a f8bf 9fe7 f8e8 cd69 04c0
000004e0: 8d74 a301 7e9f ed3f 5b9c 397a 8ca0 11c0
000004f0: 1dd4 131f cf50 04c0 bbab 5f34 8ab4 02c0
00000500: 474e 984b cf39 f3bf 8a67 01da bce9 0bc0
00000510: c245 8043 f527 c0bf 37ca 4eb3 04ac 0c40
00000520: 7036 8f16 5ac6 c83f 8d54 ff97 12bd cb3f
00000530: 87b2 475a c4a9 00c0 8257 760f 4676 0140
00000540: 2cb0 6ea5 982d 12c0 441f 1384 e2db f33f
00000550: d884 1f39 250a 1040 aa00 f7f9 5c08 06c0
00000560: 012a f61c da4d d03f acbb b68c 32c5 ecbf
00000570: ce61 fcc1 bb7b fcbf a16e 0f03 04dc ce3f
00000580: f6a0 57a7 67db 0740 996e 4c38 f9b7 f1bf
00000590: 7092 c722 3fd7 11c0 1b61 464a fa48 06c0
000005a0: 849d 22d5 22ad 0e40 1294 16c3 cbd9 05c0
000005b0: d974 3c95 65c7 fabf c67c 3d5b 69a4 00c0
000005c0: 07a7 7c83 c030 1840 25a2 0b40 d370 e6bf
000005d0: 7da2 7c67 4ef8 11c0 d7c6 abb6 7373 0240
000005e0: 27ca f849 9198 f2bf 2d5b e5b4 423c 0640
000005f0: e21e cb93 1039 d73f 990e 6483 202c fbbf
00000600: 967d 63eb 754c e73f e1d6 491d fd7d 2040
00000610: 5b96 84d6 54d0 d83f 120b a18f f343 0fc0
00000620: 0d31 1277 12fd e2bf a56d 1ddd 6879 e9bf
00000630: d043 812a 98c3 0dc0 18d2 c064 7cd4 17c0
00000640: f848 dd2d b581 ffbf 4043 1c48 0d3b f93f
00000650: beb5 39ea bcc5 00c0 2f85 2c00 8a3a e83f
00000660: 0463 b58d 0cde d83f 1a6f 66a1 e7ad eb3f
00000670: cdda e163 7f7f 04c0 c2db 9297 e449 0240
00000680: 69f5 9d08 1b7b ec3f 0f9c b5ba f0e5 fb3f
00000690: ab28 16be 52fa f5bf 9408 c4c2 874b cabf
000006a0: 1b37 5bfc 6dd3 0840 c19e 278b c562 0bc0
000006b0: 1740 a3c1 f084 04c0 dffe 6d1f a687 e5bf
000006c0: 73e5 e8ec 6ea0 13c0 8fa6 18a1 5ef7 863f
000006d0: e2bc 6d72 9f79 fb3f e926 9e80 2ddd e6bf
000006e0: 1294 8dfd eb11 f13f b4a5 392c 8fe4 0d40
000006f0: df9d 0d7a a49d 0e40 f513 7c2f e8b0 0cc0
00000700: da33 6228 aef6 f8bf c56d d27d f19a fbbf
00000710: 59f4 3daf 4852 c03f ffea 80a5 7962 eabf
00000720: 7b77 65a8 7574 fcbf 74bb 731f aaa6 08c0
00000730: dc3e 4de3 a981 f53f c449 66e8 e35b fe3f
00000740: 5ade 8a3c 811b 2b3f 8901 4980 2cdb 0bc0
00000750: caab 41d2 249d e43f 5f41 e6b2 e21d 0940
00000760: 8e19 b897 377f 02c0 ffd7 ab67 5287 05c0
00000770: d15c a7c3 f4cf 03c0 aec5 a9db dd7b c73f
00000780: aad9 7eee 2d5f 0740 4849 72e7 5e5b 09c0
00000790: 2bff f93f 11fa 0440 ec15 6ae8 674c f4bf
000007a0: 36a6 422e 3ad2 bc3f 514b f90a ec54 f43f
000007b0: 100b 7d9a c63e f73f 7ce9 9833 7715 13c0
000007c0: 0a77 a0c8 c9f1 f53f 40dd 51ba 4cc7 f3bf
000007d0: 0ffc 1b82 16a9 ffbf b9ba 3b64 4ff9 cd3f
000007e0: ef3b b8ee b9ce dcbf f4d7 d492 0991 f4bf
000007f0: e234 904a 5f17 0340 4138 dc71 e4e3 f5bf
