weight1.npy (npy, 219600 bytes, 1 tensors)

array f8 [35, 784]
-1.733095623653281 -0.98331009912963 0.3575077531673654 -1.6135785028221759 1.4707138666121289 -1.1880175973177194 -0.5497461935354897 -0.9400461615447682
-0.8279323643658708 0.1088634678336795 0.50780959049232 -0.8622273465104797 1.2494782800152269 -0.07942584660433814 -0.8895459698329135 -0.8817906598400126
0.01863894948806016 0.2378446219236218 0.013548548628612411 -1.635529399380822 -1.044209877709317 0.6130388816875463 0.7362052133238238 1.0269214393997905
-1.4321906110589266 -1.841188300186717 0.36609322616730366 -0.3317771350528086 -0.6892179780897532 2.0346075615049335 -0.5507144119145928 0.7504533303268411
-1.3069925041714798 0.580601564094188 -1.1050945982602185 0.6894581742865261 0.6839863452528336 -1.57476531808068 0.8978172977188497 0.7756722053942384
0.42393292023977963 0.10377722601600922 0.024015128813760056 -0.5754416775117203 -1.2047288075177283 -1.716456455809103 0.36578053735294996 1.8795181418136875
-0.37346961474170026 1.8299452697979894 0.0005737038691889938 -0.07625549184099505 0.003957593987599105 -0.18501411089711395 -2.4871515352227695 -1.7046512057609624
-1.1362610068273629 -2.9733154740508856 0.033311749431799834 -0.24895973595113904 -0.4501690731533581 0.13248670548989183 0.02091129516521825 0.3006017009585847
-0.8189064360689959 -1.3948704254582136 0.04578414444678491 -0.4743020641173005 -1.2239401863289383 -0.4859765467936329 -1.3498226300536964 1.571204407783008
0.7071876745101289 -1.9893181758938372 -0.2112446499933052 -1.581324075382408 2.031960935969887 -1.4143489365479665 -1.1000720736056753 -0.23791252706236124
-1.4033188366340341 0.965956971647843 -0.019397585962465276 0.8945977057600133 0.7596931198502055 -1.4977203810831696 -1.1860575240437263 1.2979229702058435
0.956960670908792 -1.2299967415374722 -0.16193292609335266 -1.5068395448518188 0.002682973515972691 0.4308085499841678 0.19502627511827297 -1.6182303025065172
-0.6847822552201838 0.8305675733191639 -0.665580049974038 1.780095977001544 -0.840819728271574 -1.2295632705375985 0.08539444529291391 -0.19973604290496966
-0.7777040066756197 2.0102301322393785 -0.08704439329665366 0.5349811657680611 0.33288734527050784 -0.29266308811887154 -1.149838099866936 1.703623988120705
-0.7221507700557533 1.093686688028402 -0.20149256016421577 -0.0072227106113298975 -0.5452168913606569 0.6910042563156692 -1.618657136655354 1.8530413016558103
-1.7679322585656219 -0.42381677050507455 0.6006806500187212 -2.218499692218888 0.0008823725207779815 0.4675976308372181 -1.0362496032173991 0.9565474209410992
-0.3294597864546875 -0.2402674516273286 1.4291156013973116 -0.05376679909043766 -0.5934371484014332 -0.5928304228148971 -1.260193500184943 -0.39031430998851
-0.15814109975673152 0.45243181949851274 -1.095431910193693 1.2369967472601613 -0.23028467842710793 -0.7044181997350232 -0.589334915175654 0.7072637087139175
0.38021496128058124 1.680195636256235 0.4177686631103409 1.0209171711349487 1.6738835265176202 -0.9346880193211486 0.34433453320929464 -0.25357535998863445
1.375856731282761 -0.14380094533357618 1.8149300386065488 0.8796181823264286 -0.19334458020884032 1.582111833496995 -0.14064001574906884 -0.07333118972353393
1.1354167272794746 1.7631994014723913 -1.4768424677188647 0.541852590267221 -0.23887545508990324 0.5026467052423433 -0.3806114116365006 0.4774851709304521
-1.4297626622362145 0.4077035130813745 -0.8299260473482486 0.40144422701358196 -0.19185674438367406 1.178017445356345 1.6442363793424002 -0.7545485471681682
3.3492557431721774 0.342863196259149 0.7649251577266558 0.15004162956778577 -0.24475665185713208 -0.11738372452473836 -0.23511023777814072 1.1450018580887495
-0.8440656218389496 -0.8220369995087632 -0.18919389411195342 -0.15920575204441462 -0.48532033771037497 0.5984895059533112 -0.20772275503181475 1.734847510263154
1.3288957876768142 -2.17179952690982 -0.32855745021228233 -0.148283556090963 1.2165805903684759 -0.626983386948216 -0.28196494709819214 1.140378776670063
1.104438212966442 0.7537809649588768 -0.9337464950303255 1.9869590309373495 0.39164515084536694 0.3945767146668017 1.2775236483965506 1.6355458244116428
0.48745484963387176 0.057645733562964346 -0.036153149000610896 2.1875702568997983 -0.554973572603943 0.7117221980555812 2.34468933894563 0.8607138043160385
-1.2248987036697347 1.4537150948455038 -0.022525900027166694 -0.3428370352956031 1.2622358183376796 -0.1329618189044914 -0.385228479842937 -0.5180916972649624
0.8231436084955711 0.02624772849754535 1.5248774172224397 0.31245594261167725 -0.47038820849100227 1.0973067426036613 1.5277579560109549 -1.3650519361207545
1.5821635688635298 0.7580913170223149 1.0338731540860144 0.5115344830900851 2.5073786109085305 1.795393697372448 0.521098348573877 -0.41611477119988294
-0.6409499154527442 -0.3401291769004959 0.36739420373227033 -0.023256508426682972 -0.6394359707071483 1.7017602022366205 -0.5441081597491132 1.481501124787983
-0.6258675736706978 0.32686909804073183 -0.8029970584664547 0.13572985704870644 -0.9581566274627633 -1.8784507758063773 0.13930852793587054 -0.628268927321538
00000000: b2e7 067a c2ba fbbf 2ed3 b2bd 4677 efbf
00000010: c8e5 fa32 68e1 d63f f265 32b1 37d1 f9bf
00000020: fdf6 6d43 0b88 f73f 69d5 78bd 1e02 f3bf
00000030: b8bb 4a54 8597 e1bf 6615 12b0 db14 eebf
00000040: 3b0b 8803 6c7e eabf 3026 13ea 79de bb3f
00000050: 314f f8e5 f93f e03f 0057 dfcd 5d97 ebbf
00000060: c8a4 dbef dcfd f33f 376c 9f95 4055 b4bf
00000070: 2712 171c 2977 ecbf b1cb bd0b a137 ecbf
00000080: 4f9b eeb9 1616 933f 1d81 584c b171 ce3f
00000090: f32e 256a 57bf 8b3f 61cb 1fe0 202b fabf
000000a0: 2fbf ae6a 15b5 f0bf 16c8 80b7 039e e33f
000000b0: 5bdb 4b3c fe8e e73f 9688 dc2c 456e f03f
000000c0: 792e c2b3 40ea f6bf c846 f1dc 8175 fdbf
000000d0: ae3e 6b48 126e d73f 5e31 272a d63b d5bf
000000e0: 56be 76dc 120e e6bf 2edd 4654 e046 0040
000000f0: 547d 93d4 739f e1bf bbb2 ddb3 b603 e83f
00000100: d489 d8f8 70e9 f4bf c04f 39bb 4994 e23f
00000110: ec38 68ac 77ae f1bf eba7 d096 0a10 e63f
00000120: 02b0 f854 37e3 e53f 4381 401e 3d32 f9bf
00000130: aa89 6f57 ebba ec3f ceb3 5284 4ed2 e83f
00000140: 172b 088b b721 db3f aef0 ceef 2491 ba3f
00000150: 1012 7503 6c97 983f 0962 35aa 046a e2bf
00000160: 4f67 cdb6 9146 f3bf a754 6b0b 9b76 fbbf
00000170: 356e 5cc5 f268 d73f 7241 759d 8112 fe3f
00000180: 7061 5719 ede6 d7bf 4309 f4b0 7447 fd3f
00000190: 8464 89ad 93cc 423f b3f3 98db 7a85 b3bf
000001a0: 0b1b f68b d635 703f f001 cdd9 8aae c7bf
000001b0: ebd2 3fb4 afe5 03c0 e948 bd57 4046 fbbf
000001c0: 68b2 8005 202e f2bf 11ea 8d9f 59c9 07c0
000001d0: 22a6 c3d4 3c0e a13f f728 f7a1 e9dd cfbf
000001e0: c450 b7f1 91cf dcbf 6cef 9d09 53f5 c03f
000001f0: d70d 6843 c569 953f 4d4d afea 0e3d d33f
00000200: dece 2c45 7b34 eabf 9802 b8a6 6351 f6bf
00000210: 3008 26f6 0471 a73f 4fc8 730b f75a debf
00000220: deaf 084e 4295 f3bf b681 c65f 3d1a dfbf
00000230: 8ab3 379d df98 f5bf 2425 ac3b a723 f93f
00000240: 30f8 c40b 48a1 e63f a8d6 ac4b 3fd4 ffbf
00000250: 218e 968f 100a cbbf 6f51 4279 1a4d f9bf
00000260: f6eb 35bc 7441 0040 bfb1 b959 2ca1 f6bf
00000270: 8811 b62c e599 f1bf b951 85ed ea73 cebf
00000280: 5a43 d373 fe73 f6bf 0d43 5298 1ee9 ee3f
00000290: 720f 52f5 f5dc 93bf c11b 2a5e 8ba0 ec3f
000002a0: 4617 18f2 674f e83f c0e0 74a5 a9f6 f7bf
000002b0: a314 4f74 17fa f2bf 342e 5ce0 4ac4 f43f
000002c0: 3f91 23fc 6b9f ee3f ac70 3110 11ae f3bf
000002d0: 69b7 dbd6 37ba c4bf 5354 57c8 031c f8bf
000002e0: 0b77 3a70 9afa 653f 473a 4106 5e92 db3f
000002f0: f030 bff8 9ef6 c83f 3c96 2a75 45e4 f9bf
00000300: 77a8 e179 bce9 e5bf b7c3 9072 0294 ea3f
00000310: f345 7088 6e4c e5bf a167 4feb 457b fc3f
00000320: ad41 58c6 fee7 eabf 0926 3589 4aac f3bf
00000330: 550a cb0d 69dc b53f 76fd 0d5e f390 c9bf
00000340: 7d7a 5483 f3e2 e8bf 1037 1b89 f314 0040
00000350: c560 8296 8a48 b6bf 9364 5ed2 901e e13f
00000360: 131a 4cb9 064e d53f 02e2 0df6 fdba d2bf
00000370: ecf8 a9a2 bc65 f2bf 658d 1a3a 0b42 fb3f
00000380: 2f76 85ee db1b e7bf cf70 d29c bd7f f13f
00000390: 8b74 251a 82ca c9bf 417e d39d 8f95 7dbf
000003a0: a5dd b3b1 6a72 e1bf 25b9 48f5 b41c e63f
000003b0: aef2 9506 05e6 f9bf cefb cba2 0ea6 fd3f
000003c0: fe52 0156 7349 fcbf 5333 3460 d01f dbbf
000003d0: 2874 65a0 c638 e33f 2821 42c4 7cbf 01c0
000003e0: 760d 508f e0e9 4c3f f981 089d 1eed dd3f
000003f0: bffc c476 7a94 f0bf 3f7c 4056 099c ee3f
00000400: b7e1 0a80 de15 d5bf 7e2d 8477 15c1 cebf
00000410: f746 2352 a8dd f63f ec76 6867 5287 abbf
00000420: 71b3 13e7 6ffd e2bf f00a c281 77f8 e2bf
00000430: 4ed1 dea8 c029 f4bf e8ee 23df e8fa d8bf
00000440: c4e7 cdb1 f73d c4bf e69d 1a97 a4f4 dc3f
00000450: 726d 549c e386 f1bf 32da eb19 bdca f33f
00000460: 8ea1 4ee5 f779 cdbf 3c36 5209 988a e6bf
00000470: 7440 62e5 d4db e2bf c45d 5280 e7a1 e63f
00000480: a599 0922 7155 d83f 99a3 c9d1 14e2 fa3f
00000490: 4690 56c6 b8bc da3f e830 5f3e ad55 f03f
000004a0: 1e4d bb17 3ac8 fa3f b050 5ed9 f6e8 edbf
000004b0: 341c c1b5 9309 d63f 463f 8e25 943a d0bf
000004c0: 6774 0d59 8203 f63f 56b9 abc2 1168 c2bf
000004d0: 857d 8514 f409 fd3f 22e3 c107 d525 ec3f
000004e0: 728b 6de4 83bf c8bf 3fbf 777f 5450 f93f
000004f0: b959 13f6 7d00 c2bf 69ac a335 d5c5 b2bf
00000500: 76f2 efba aa2a f23f 3f69 5a93 1036 fc3f
00000510: b324 4391 25a1 f7bf 556b 4e3e db56 e13f
00000520: efd0 b68d 7893 cebf 12a8 0e8b ae15 e03f
00000530: 7aa4 5df7 ef5b d8bf 2729 5ef6 1d8f de3f
00000540: 008b 35d0 4ee0 f6bf 2186 c979 d017 da3f
00000550: 62b2 ee11 c18e eabf d23e 8c20 43b1 d93f
00000560: 788c 5205 c38e c8bf 7bc4 1ed2 28d9 f23f
00000570: 77b4 42ce ca4e fa3f 6f9c aafe 4225 e8bf
00000580: dcea 5698 46cb 0a40 43d8 bb79 78f1 d53f
00000590: 2a5b 0a53 447a e83f b01e 046a 9034 c33f
000005a0: 3238 9a9b 2f54 cfbf ca9a ea19 dc0c bebf
000005b0: 7a1f 1b9f 1718 cebf 4a9b e577 ed51 f23f
000005c0: f73c 2fe8 9502 ebbf 55bf 9f89 204e eabf
000005d0: 3428 e869 8137 c8bf 0ad4 2ea5 da60 c4bf
000005e0: e02e a308 7d0f dfbf 8932 e276 d326 e33f
000005f0: ae92 bfc3 a896 cabf 4d09 8276 efc1 fb3f
00000600: 42d3 bd3a 2843 f53f 1a5e 2c6e d85f 01c0
00000610: ac35 e1d3 1507 d5bf 88fe f89f f4fa c2bf
00000620: ae4b 8935 1d77 f33f 2a7e c276 3f10 e4bf
00000630: 3fed 99b4 b60b d2bf 469b edd0 fd3e f23f
00000640: fd4b 5267 c7ab f13f f50f 1b42 f91e e83f
00000650: b11d 5d54 40e1 edbf 61e2 858d 95ca ff3f
00000660: 4124 a1d2 b610 d93f 4b73 50b1 be40 d93f
00000670: 36ad 1ba3 bc70 f43f 5d51 2f19 322b fa3f
00000680: 980f 5dd3 7532 df3f 2450 d0d8 bd83 ad3f
00000690: a8c7 3561 aa82 a2bf 14b2 b8d5 2480 0140
000006a0: 8d4d 0ff0 57c2 e1bf f48c 8fa1 6dc6 e63f
000006b0: 2569 f07b ecc1 0240 a219 18ad f78a eb3f
000006c0: f5c9 1262 2f99 f3bf f401 61c2 6a42 f73f
000006d0: 3ef5 b78f 0711 97bf 0ff1 9cbf 0af1 d5bf
000006e0: 239a 792f 1e32 f43f 17de e793 e404 c1bf
000006f0: 0772 9a5a 95a7 d8bf f1a0 020a 3594 e0bf
00000700: 07cc cc43 3157 ea3f cc08 f73d afe0 9a3f
00000710: b811 d6dc e565 f83f fb4f bd35 47ff d33f
00000720: 0425 f924 d71a debf b69b d283 918e f13f
00000730: 6f55 9453 b271 f83f 94ae efb2 40d7 f5bf
00000740: 6710 13bf 8a50 f93f d4c1 bfb8 4842 e83f
00000750: 5630 9093 be8a f03f e5bd 7490 7d5e e03f
00000760: 1d56 6484 1c0f 0440 068c dabd eeb9 fc3f
00000770: 2bfb a371 d6ac e03f c0e7 6bd9 9fa1 dabf
00000780: c3ca a765 a982 e4bf 6bfe cc2a adc4 d5bf
00000790: b348 71fa 6283 d73f 0f6f 72dc 8dd0 97bf
000007a0: c957 c26c 4276 e4bf a0d9 e3e7 683a fb3f
000007b0: 717e f383 5569 e1bf c339 ff85 3ab4 f73f
000007c0: 4e5c 116f 1b07 e4bf 081c 8a5d 6ceb d43f
000007d0: 54b9 1ce3 26b2 e9bf a8b6 8e90 985f c13f
000007e0: 40be 6c16 38a9 eebf 5cbf 9366 220e febf
000007f0: 77ec c4a1 dcd4 c13f 580c fe6f c71a e4bf
