weight1.npy (npy, 188240 bytes, 1 tensors)

array f8 [30, 784]
00000000: bf6f 41ad 0b6c e1bf c434 b7b1 a961 e5bf
00000010: b481 a41d e0f5 7d3f d891 eab1 319d e3bf
00000020: e9ce 21a3 c4cb f43f b2e7 067a c2ba fbbf
00000030: 2ed3 b2bd 4677 efbf c8e5 fa32 68e1 d63f
00000040: f265 32b1 37d1 f9bf fdf6 6d43 0b88 f73f
00000050: 69d5 78bd 1e02 f3bf b8bb 4a54 8597 e1bf
00000060: b5f1 584d 4815 eebf ac15 f052 717b eabf
00000070: 104f 5bfe 4401 bc3f 145a 134a 2840 e03f
00000080: 0057 dfcd 5d97 ebbf 9ca9 25fc d3fd f33f
00000090: 50ea 9b11 6761 b4bf 9c28 c827 ae78 ecbf
000000a0: 4ad7 8f41 b137 ecbf 4f9b eeb9 1616 933f
000000b0: 1d81 584c b171 ce3f f32e 256a 57bf 8b3f
000000c0: 61cb 1fe0 202b fabf 2fbf ae6a 15b5 f0bf
000000d0: 16c8 80b7 039e e33f 5bdb 4b3c fe8e e73f
000000e0: 9688 dc2c 456e f03f 792e c2b3 40ea f6bf
000000f0: c846 f1dc 8175 fdbf ae3e 6b48 126e d73f
00000100: c950 272a d63b d5bf c383 6ce8 120e e6bf
00000110: 79fe 7e1e d6f0 ff3f 0b1c 0cb6 ba44 e5bf
00000120: 6668 fdc0 9c1f e23f 2fa8 0192 c3fc f5bf
00000130: 62d6 de03 b6a9 e03f b9c4 eae2 69db f1bf
00000140: be6c cecc 6bac e53f 2287 0a77 456d e53f
00000150: a9c4 8710 e537 f9bf eb3f f1d2 d3bf ed3f
00000160: d52e 83a1 46fa e93f d2d6 f653 d9a6 db3f
00000170: 69a7 cd77 3e2e bb3f e8eb fbbb 16d7 953f
00000180: 9b86 a78e 08e0 e2bf 80fc 8b04 1b3b f3bf
00000190: 1565 919b 004c fbbf 8aa9 fc79 49a0 d73f
000001a0: b885 95db 7106 fe3f 19a1 ae3a 2f1f d8bf
000001b0: 53d9 7c35 9c4f fd3f 6abd 6b8f 04b8 683f
000001c0: b60d 041b 4676 b3bf 0b1b f68b d635 703f
000001d0: 6819 cdd9 8aae c7bf 1e62 709f d1e5 03c0
000001e0: 84ca 13e9 5746 fbbf 75d9 f2ea dd2d f2bf
000001f0: 067c 8f89 3cdb 07c0 1670 796a bc03 b0bf
00000200: c932 a6fd 6a38 debf e4c3 3fd3 bce7 e3bf
00000210: d388 d066 234f 823f f02d 186d 7469 ccbf
00000220: 0b7c a0fa 6cb7 b7bf c420 f1f7 dff3 f3bf
00000230: 4ec5 2340 85e6 fcbf af03 b4ca 5f34 d2bf
00000240: 039e 05b6 2fba e6bf 69a6 8e6a 972c f4bf
00000250: b427 9c1a 99e6 debf c921 947f e9d6 f6bf
00000260: d626 0c1a 75a2 f63f 9a19 7478 c8f6 ed3f
00000270: 2cc0 a288 8103 fabf ba65 5464 b543 c5bf
00000280: b4ef d5c5 39e3 f8bf e675 a238 af5f 0040
00000290: 73b9 31fc 1b5a f6bf e5d8 0136 048e f1bf
000002a0: a6a1 6baf 248e cebf e21a 8a40 75dd f6bf
000002b0: 39e7 c82c 3f5e ee3f c170 046a 65c9 98bf
000002c0: d4f9 5968 ce1b eb3f 87c9 0eee 554d e73f
000002d0: 449e 6c28 75d4 f7bf 59aa 5c62 49a9 f5bf
000002e0: 914e 1c86 70d4 dd3f 906d c930 caa3 da3f
000002f0: df0c 226c f24c eabf a3e3 8234 8e11 d83f
00000300: 89bf 5b1a e5ba 02c0 5969 bcf5 906e f8bf
00000310: 463d 8edf ad5c cfbf 5484 8dbb b540 e0bf
00000320: 1643 9747 096d ffbf ed9b 3827 df0e efbf
00000330: 780a 8121 5bff e2bf 5839 0c4e 7393 fcbf
00000340: a251 71e7 1223 f23f 0b37 9729 e791 e4bf
00000350: df19 7ca8 6b73 eabf 9e95 46a0 1d8e e03f
00000360: 46d4 3677 d902 c83f 562f e1ae f9d3 d6bf
00000370: b941 bd06 a364 0240 f213 ca2c 9625 c5bf
00000380: 6055 4f4e d9d7 dd3f bcaa 1f95 7847 d13f
00000390: cb31 d712 7c78 d4bf f674 9ba6 d06b f2bf
000003a0: 1d6c cfdc 5166 f93f 738a aafa 5733 e9bf
000003b0: de96 1c32 0339 f33f dffa 0471 7b0b d0bf
000003c0: e9a8 82aa 1bab cfbf 9034 5a0c 4a75 ebbf
000003d0: 6b75 fd44 ff84 e33f c991 497a e066 e6bf
000003e0: 2de3 413b a137 0040 acde 1e41 bfb9 ecbf
000003f0: c54a 0fa2 12b3 f63f 9917 ccdc c771 e23f
00000400: 1ef8 5fde 8b08 febf 3256 a7f3 bcf4 ed3f
00000410: 3d2e b5fd e903 f63f 4216 2ded e548 f4bf
00000420: 9264 6bfd da36 c33f 110a 2af7 0e54 fabf
00000430: c9e4 5e67 2f10 ffbf d54a 4d94 dd46 f53f
00000440: 3b14 4909 6889 ee3f b606 a38b ebf9 b6bf
00000450: 6fd1 1023 5864 ddbf 32de 4f0e 4bbc f5bf
00000460: c470 f0ac 3576 e0bf c321 b1a6 dba7 cbbf
00000470: d8fa de6d 4fc3 da3f 5eac 44b8 7363 f1bf
00000480: 4e4c cbdf 8116 f03f 44de a642 ac00 cbbf
00000490: 4513 bd6f 63ed dabf 462d 7aa2 2d4c debf
000004a0: 8d9e f9e1 eaa9 ea3f 8327 ef64 f3e2 e93f
000004b0: afa8 e2d3 0c04 0040 8357 ae8e e7f0 f73f
000004c0: 63f2 2b0f 655e 0040 125c 40e6 10ba fa3f
000004d0: 2451 07a7 ea8c d0bf e776 ab36 1282 ce3f
000004e0: 82f9 8af4 a70c ed3f 8105 60ec 4137 0140
000004f0: 6bdb 8ef7 322f e13f f82d 128b e450 e53f
00000500: 5601 3472 7946 b8bf 5c9f 13d4 363d f9bf
00000510: b43c 4ea3 2345 e5bf edc9 3408 e8f8 e1bf
00000520: 89b8 6ccf c518 df3f e423 4f97 242c fd3f
00000530: c422 b386 9975 f63f 3434 b040 d9b9 fbbf
00000540: 48ff 3191 c674 d23f b9e3 ee76 93b3 d5bf
00000550: e6cc e13c aad9 e03f e74d 76f6 793e d4bf
00000560: c09f 5f6b d5d6 bd3f 5da1 f289 be02 fcbf
00000570: 9b5b 2181 56b4 e63f 5640 2217 606d e53f
00000580: 1d69 9b3d 1366 0240 e91b 1b2f ffc5 e33f
00000590: 8650 1162 b7d0 cc3f 68da ef08 c88b f93f
000005a0: 2f9e 5829 e771 4fbf 5c1a 3013 f757 0640
000005b0: eea1 ec1a bbe7 ee3f c709 00e0 d25c 0240
000005c0: 165e bea2 68ab f43f b324 de7c 2e50 cc3f
000005d0: 142a bed3 a248 d83f 361a 103d 8502 ca3f
000005e0: 56de eac3 88cb e93f 6273 af8d ffac e6bf
000005f0: 98b7 9ffb a179 d0bf eb1f f166 5942 e63f
00000600: 4956 8668 ec4f 773f 08b5 5857 8ec1 dbbf
00000610: ae91 d38d 2e04 bd3f 2893 59c0 7ce6 e3bf
00000620: 1d5a 4507 3a02 f23f 4c88 cbb7 f771 ed3f
00000630: f019 cf9c e723 02c0 f1db a76e f097 d2bf
00000640: 3395 3be4 961c e1bf 9d04 69dd f54e f83f
00000650: 4879 9eeb b88a da3f fc69 efc5 fb1d f83f
00000660: 8e1c 4a52 56d7 0940 9597 3900 f5cf 0140
00000670: bfbb d502 f6b0 e83f eebd d38b a767 ecbf
00000680: b7d3 6671 497f 0340 93ef e6f9 c490 fa3f
00000690: 92a4 c4d4 965a dc3f 9e60 d40d d77f 0240
000006a0: 3187 d13f df6a 0240 d4ad ce2a c11e ff3f
000006b0: 766c 50a9 1674 f33f 69dc 1564 da9c 0540
000006c0: 4960 3474 0c7b 0f40 19e9 81c7 9600 e83f
000006d0: 798c c1f6 b8b5 f83f 4f08 d43f b0b9 0e40
000006e0: fdb1 f45b f38b f93f 39c9 d254 a1f4 f4bf
000006f0: 226d 9fdd b6b8 f23f 3172 32ac a99b dcbf
00000700: 4b5e c86c 6b53 f4bf d475 ef81 1bfd e33f
00000710: 9fb4 f9fe ef2f d3bf 1582 b024 5b35 d8bf
00000720: 7756 e07d 78ad f3bf ab04 481b b801 f23f
00000730: a485 4aad d6be f03f b6dd 0898 32ee 0040
00000740: 877a 8112 7ed7 ef3f 860b 176a a529 d43f
00000750: ebc8 843a f26c fc3f 0493 9c54 b872 f63f
00000760: d75f e3ce d09b dfbf 66e6 77ba 9ce6 0040
00000770: 9909 9368 b5ab f63f 1591 0c60 df79 0440
00000780: 2dc9 c608 baf2 0640 3644 b061 720e 0340
00000790: cc93 d503 8283 0b40 764b e54e 9b74 0a40
000007a0: 71ca 41f8 ff4b f23f 6dc7 b289 f062 d93f
000007b0: b0d7 c041 aa17 e23f dfd3 c8b0 b617 ff3f
000007c0: b3ae 2e88 b100 ed3f d04b 27ac d9e3 ddbf
000007d0: f194 2afd 0117 fa3f c46b 1460 71b3 f0bf
000007e0: 8ae2 48f7 d141 e83f 7b92 3cef ee3b f3bf
000007f0: e81b 8c76 aa70 c43f 247a 0b51 3b1f f0bf
-0.5444391616724643 -0.6681717368134277 0.007314563228903049 -0.6129387354781626 1.299748074755309 -1.733095623653281 -0.98331009912963 0.3575077531673654
-1.6135785028221759 1.4707138666121289 -1.1880175973177194 -0.5497461935354897 -0.9400979529087211 -0.827568685520125 0.10939437112693562 0.5078317114628725
-0.8622273465104797 1.249469742726979 -0.07961124591739943 -0.8897314812650339 -0.8817983894830175 0.01863894948806016 0.2378446219236218 0.013548548628612411
-1.635529399380822 -1.044209877709317 0.6130388816875463 0.7362052133238238 1.0269214393997905 -1.4321906110589266 -1.841188300186717 0.36609322616730366
-0.33177713505325507 -0.6892180003670706 1.9962979499104263 -0.6646398120509515 0.5663589257558328 -1.3742099479081948 0.5207166743845841 -1.1160677780101607
0.6772974968074761 0.6695887875577891 -1.5761461873737892 0.9296664352386846 0.8118012575664247 0.4320586509669343 0.10617437767873884 0.02132831117976855
-0.5898478304117875 -1.2019300630197733 -1.7060552670357698 0.3691581431654859 1.8765734269621657 -0.37690335016897475 1.8319360818255361 0.003017434031214063
-0.07602346572462335 0.003957593987599105 -0.1850141108972807 -2.4872162300273564 -1.704673681696165 -1.13619796540078 -2.982049059573458 -0.06255700683090057
-0.4721934773486223 -0.6220382810553216 0.00894000680461141 -0.22196822478177536 -0.092642604053694 -1.2470397649031364 -1.8062794213731936 -0.28444666667206325
-0.7102278285137235 -1.2608865892783803 -0.4828245887625784 -1.4274687751331945 1.4146624581793978 0.9363748886687973 -1.625855954869631 -0.16612880133543034
-1.5554750183064074 2.0467209267214796 -1.3969993449532836 -1.0971719846398227 -0.23871286931467955 -1.429066898448291 0.9490047335341166 -0.0242057653386929
0.8471443212618461 0.7281903886380839 -1.4893695429872347 -1.3538297502770062 0.4660912809060643 0.4162469364580028 -0.8218929397557097 0.37607150199942846
-2.341257291722233 -1.526993713289434 -0.24501584449579122 -0.5078991568699487 -1.9641201778906114 -0.9705653921163254 -0.5936713842750825 -1.7859986351719126
1.133562950203761 -0.64281042216473 -0.8265894213407669 0.5173481111893812 0.18758695908550943 -0.3566879470642922 2.2991390730387278 -0.16520955264073184
0.46629936835718944 0.26998724520550943 -0.319853800200488 -1.1513220317931974 1.5874804139518865 -0.7875175376723987 1.2014190633284936 -0.25070081746154743
-0.24740930391028051 -0.8580675355202789 0.6099850032293664 -0.7000582111764341 2.027162993381714 -0.8976742050062589 1.4187189417322525 0.5763892471738813
-1.8770865141409625 0.9361252554760482 1.3759555731256932 -1.2677973999683592 0.15011155485152422 -1.645522084698886 -1.9414514577786568 1.3298011582416411
0.9542732411724794 -0.08975097807981566 -0.45924952911743494 -1.3584700163900263 -0.5144298913687853 -0.21606012000326133 0.41817079286185566 -1.0867802808741298
1.0054949514349292 -0.21095803503497923 -0.42073903953523867 -0.47339955202979345 0.8332418836188978 0.8089539500590351 2.0019775918527425 1.49631458029532
2.046091192749644 1.6704262727923873 -0.25860086737999866 0.23834445638106347 0.9077949310520099 2.151981207542747 0.5370116076581842 0.6661246029120198
-0.09482535398638467 -1.5774448665851741 -0.6646898450434464 -0.5616340790059532 0.48588700538938007 1.8232770834458671 1.4037108670910792 -1.7328732039343437
0.28837742022732415 -0.3390854512650168 0.5265704335310175 -0.3163132578713132 0.11655935164856057 -1.750669993265624 0.7095139047695399 0.669601483519737
2.2998413861324836 0.6179195327794079 0.22511951721628892 1.5966263150309263 -0.00095962321455984 2.7929517268233166 0.9657874608865862 2.295324087144056
1.2918478352711467 0.22119694802339537 0.37943335226069164 0.20320191842638885 0.806095488215713 -0.7086179511348798 -0.25742387364049923 0.6955992708762982
0.005691455335541892 -0.43368872194226116 0.11334505999145136 -0.6218856579622285 1.1255436214465881 0.9201620664355317 -2.2675316096021945 -0.2905236321088856
-0.5347399194403465 1.5192774437748888 0.4147169400183839 1.507320187744539 3.2301451138369606 2.2265415208411903 0.7716016822213233 -0.8876531344412208
2.4371518001084627 1.6603441011238587 0.4430291250051336 2.3124219017445986 2.302183626729765 1.9450084373628345 1.2158419240793399 2.701588422696251
3.9350823477252885 0.7500718971853387 1.5443658484371368 3.8406682001669092 1.5966676322960887 -1.3097241700566669 1.1700962693347 -0.4470009023296227
-1.2703661202739507 0.6246469056892985 -0.29980087184851273 -0.3782565935416938 -1.2298512379688 1.12541971833006 1.0465914506133709 2.1163074376779276
0.9950552331391272 0.31504187927583194 1.7765981946836813 1.4030078225270595 -0.49388523296283665 2.112603623184259 1.4169210514961377 2.5595080856165944
2.8685188947357774 2.3820541030804874 3.439212827639926 3.3069368518567286 1.1435546586550596 0.39666379401307134 0.5653888019794433 1.943289461674105
0.9063346538364015 -0.4670318776308564 1.6306171311674087 -1.0438092949977866 0.7580346898822239 -1.2021321625881274 0.15968828953211234 -1.007624928075196
