weight2.npy (npy, 2480 bytes, 1 tensors)

array f8 [10, 30]
3.152257711366459 2.2349829631404403 -0.5214635574920247 0.43476340453504825 2.1009313462823838 -3.680855087576184 -4.443575632890732 4.617107162391949
-0.35465301504486035 0.7549906096351704 2.1238543596874937 -1.1390618042141663 -4.389932701650813 -4.0558337319729345 4.3127993025604985 -1.1779912018376824
-3.524472105768508 -3.1962377218482367 1.5936278689282979 -3.0741893273254832 -1.0244891556611369 -6.30517215775006 -2.2758112749058195 -4.499830077364239
1.8065510689481168 4.658305352255901 -2.486357831515168 0.7260664111867814 0.608873872559043 -4.690936722645394 -3.6963743065924417 -3.5043043921206034
2.6807280307461685 2.710787471352919 4.137221098045889 0.19162630221262858 2.504834081925667 -2.222727978515043 1.8574377624478502 4.759737242643292
-4.515134358535068 2.147187993970811 -1.5658232987096086 5.053214378976982 -1.013519860581967 -2.673382590964092 4.892690743211216 -4.9825800938692435
-2.776703658130873 -2.4749702230519386 0.6753068970445264 -1.9740098668928117 -4.8553070976724815 3.111520913444812 -2.965532036313956 -0.19977523892725554
-0.6312097452067045 0.5688250802185141 -3.6359306885904457 -1.55802377921093 1.4203870627206703 4.993213731636392 -0.18841811585927656 -1.7394400665595637
2.493277504760884 5.086103288832144 3.155917491027799 4.585674782488775 1.5790757832881164 -5.928470095192074 -4.062723857642113 -0.03110700813903669
-0.12196281745740352 1.533676252153723 3.873213896777766 -2.106607676773365 2.2155109736257037 4.046010080090634 -1.7360878330271756 2.6466822418240628
-1.6478515204216329 -10.508608240464378 -3.076072768810949 -6.037786661308761 1.2997246312052892 -0.11400658267219071 -0.043762258802893576 -3.6466287800562593
2.8219519520318657 6.3884868742289145 -1.6404008987996954 1.5885838001843382 -0.560165700987994 0.6633203492038667 -7.838197509842411 -0.5219947043968007
6.080516748156399 -0.21970225504314753 -1.340011811336992 6.408332481481775 3.3692568957838898 5.5045394135905825 -2.4405889625482673 -1.8927367430341278
-4.9964026907355 -1.628371005330098 -5.125333265629832 1.1127604086664955 -4.484805008469588 -5.868644892761895 -1.0580979334844078 -5.4078777706734105
-6.0906211960051735 -3.357515798507989 2.545828317441094 -2.6648965133469744 1.144613178852192 -3.5687162584385828 -3.1995224913215994 3.2300282728287106
4.087027105037813 -2.5239191999156914 5.519464274587967 -5.0442904877557355 -3.375019665503008 -1.8080316704139088 -5.066606785947034 -1.5907945187169297
4.614446343762533 -1.285798193475644 -0.13641472653823666 -0.4505601144689313 6.858996611017416 0.1654807334982007 -0.03721779772129369 -6.062812804161477
1.047333459645285 -0.20021881805563554 2.069164324725897 -5.696931394103223 -0.5477544773644396 -2.5084242762335323 2.8278646674325048 -2.501937402624434
-1.9256989085026608 -8.442677772980332 0.4327168808945266 -4.023159584316426 0.541614314135037 -1.9089989094634114 -1.1974005358593862 -1.0032578393155593
-0.7781983055994759 -3.5918982134252184 0.27585626823323134 0.7371750923137543 -4.027114221612438 -2.2515615998736234 0.4373810475972137 2.6502599333633334
-2.9948906014465204 -7.661206282082759 -0.16939780029086635 1.0519926298523943 -1.3547990671493404 0.25196693225558303 -4.106034224701398 -2.161433226090029
-4.52947776139816 2.97802792958452 -2.0043464262227113 -5.188952302129772 1.8940594203373669 6.409893994671358 -0.9128591433111974 5.677184794114294
11.150806890270978 6.869401833341251 4.616354664378151 1.060637790104581 -5.401152962942721 -1.5665084753484368 2.200731691087104 4.0371791936775185
-1.4315789598113315 -2.2446946805803165 -5.753897632654702 -4.945524523478746 -2.7679521474522395 -3.638678502529408 3.4739852692618274 2.3571638667125177
2.45952714174752 -1.2336176682487578 2.9231240281026087 -1.336366673620846 -1.2759480438749669 -3.8823621008080713 3.319551791016123 1.2235613772169351
4.464892619148228 -2.815643310982137 -5.043432256096919 2.955686073265023 -3.4015835301680877 0.9795984014574401 -2.9153500289122114 2.378498855990632
-1.7619949201157603 -2.24175584804699 -1.7342702581337361 -5.956002636977358 -3.4275919588615995 -3.2363484263677753 -3.4482471021720356 3.3947083982910256
1.0537531923309564 -1.964670019490866 4.543021574729073 6.083018022927244 -2.2909298387764965 -0.004531755584347548 -5.722290111027482 4.775596382242531
3.6458161790658354 1.142336994195505 0.7328705423703558 -1.1786971683371834 4.179838515863428 3.5757171398634235 0.519056527225314 -4.612904867122413
3.445164272270936 -0.4624110120817539 3.5023789744449707 -5.26241462365773 0.47152117176619046 -1.3343527048931232 0.4859096533557958 -2.7492546527640673
3.961317403725623 -1.3091317457506297 1.5924330200010206 -0.07556136716899162 2.0325901895960374 -0.7850910819114706 -5.0812460762601095 -6.503574990921403
-2.8029190676193396 3.700342387817772 4.170057239640258 -2.402884598720112 1.9696456373917113 -3.068717995991058 -1.5553458291021227 3.149954177438997
00000000: df0f 17e4 d237 0940 6371 6ebf 3ee1 0140
00000010: 6f7d af57 d4af e0bf 0e71 fee2 29d3 db3f
00000020: 8964 fb17 b5ce 0040 b0a3 f326 6472 0dc0
00000030: d545 d2b0 38c6 11c0 3367 a2f0 ea77 1240
00000040: 00e9 428f a2b2 d6bf f271 2511 e228 e83f
00000050: 3499 c25a a7fd 0040 c48f d3de 9839 f2bf
00000060: b7ec a484 4a8f 11c0 7b59 537a 2c39 10c0
00000070: f7d5 da75 4e40 1140 b5e5 6d4d 0dd9 f2bf
00000080: 1c85 6f6e 1e32 0cc0 45a3 2c15 e591 09c0
00000090: d0a8 b0ef 7f7f f93f fd99 f492 f097 08c0
000000a0: 62bd aabd 4e64 f0bf bbbe d40c 7f38 19c0
000000b0: 5fb5 ac8a dc34 02c0 a258 af74 d3ff 11c0
000000c0: def9 fa17 a2e7 fc3f 28e2 5acc 1aa2 1240
000000d0: c916 2493 0fe4 03c0 9cae 58a0 ef3b e73f
000000e0: 72f5 400f e57b e33f 3578 8dea 84c3 12c0
000000f0: b6b6 44b1 2c92 0dc0 e318 bbbd d008 0cc0
00000100: c433 ac89 2172 0540 48f0 7e57 b1af 0540
00000110: 95b6 01b0 838c 1040 6140 87ee 3587 c83f
00000120: 2437 7e73 e609 0440 aa02 3d9b 25c8 01c0
00000130: 5a1a c1a8 10b8 fd3f 1ad3 4a8f f809 1340
00000140: f4d0 9b61 7f0f 12c0 72bf 23e6 702d 0140
00000150: 9a5c 34bb 9c0d f9bf 4888 85d4 7d36 1440
00000160: 88bc f099 6037 f0bf 9817 6f69 1663 05c0
00000170: ed22 ae85 1d92 1340 de79 e379 29ee 13c0
00000180: 66d8 5268 b036 06c0 bca7 3430 bdcc 03c0
00000190: 2e39 b235 1d9c e53f 3593 c45e 8b95 ffbf
000001a0: f228 b29f d56b 13c0 2c86 a013 65e4 0840
000001b0: 78ab 39dc 68b9 07c0 7f1f df2a 3c92 c9bf
000001c0: 8889 92c7 de32 e4bf e9db 95a7 d033 e23f
000001d0: 5926 30d4 6216 0dc0 cc9e a157 aaed f8bf
000001e0: 9cbf e0c8 e7b9 f63f 0544 3d05 0df9 1340
000001f0: c775 cbb6 151e c8bf 329b 731b bfd4 fbbf
00000200: 6367 f679 3bf2 0340 ca72 e675 2b58 1440
00000210: cdb5 66ab 513f 0940 5a86 5321 bb57 1240
00000220: 770c f2f7 e443 f93f e6a7 58dd c0b6 17c0
00000230: e101 d5ae 3a40 10c0 28c6 88fa 83da 9fbf
00000240: a5bc 4e88 f438 bfbf f66e 1a1c f089 f83f
00000250: f795 4891 57fc 0e40 00f4 2920 55da 00c0
00000260: 4e36 3dd1 5db9 0140 3a1a 3544 1d2f 1040
00000270: 185d 1d09 04c7 fbbf 774e 3cbd 672c 0540
00000280: 23ff 4d8e 995d fabf 8d8a 9e4c 6804 25c0
00000290: 0846 310a cc9b 08c0 442f ea8b b126 18c0
000002a0: 6c51 0d0e accb f43f 5c14 1b10 892f bdbf
000002b0: 570c b7bc 0168 a6bf bcf3 b7b5 4b2c 0dc0
000002c0: bde1 868b 5b93 0640 2df4 ce80 cf8d 1940
000002d0: 77c7 4a03 153f fabf 40f4 cbd8 d66a f93f
000002e0: fdb2 c29e e0ec e1bf d342 d398 eb39 e53f
000002f0: 7a72 b172 505a 1fc0 e838 023d 2eb4 e0bf
00000300: b172 80fb 7252 1840 4746 2218 341f ccbf
00000310: 3d23 9f39 b070 f5bf 5c6f f7e8 21a2 1940
00000320: dcb6 99f5 3cf4 0a40 85a8 e3fa a504 1640
00000330: adfc 8881 5386 03c0 604e b452 a648 febf
00000340: e76b a9fc 50fc 13c0 cd5b 5ac1 ce0d fabf
00000350: 8eec 135d 5780 14c0 5e19 b8db ddcd f13f
00000360: 6b41 61b9 70f0 11c0 c3ff f80b 7e79 17c0
00000370: cf7d 4419 f8ed f0bf 123b d7b5 aaa1 15c0
00000380: a0aa 84cd cb5c 18c0 3e29 333e 31dc 0ac0
00000390: 241f a53c db5d 0440 c065 6043 b551 05c0
000003a0: 2bda 9be8 5550 f23f dc93 151c bb8c 0cc0
000003b0: 7a57 783f 9f98 09c0 2ea3 2710 19d7 0940
000003c0: 0903 28a2 1d59 1040 3613 ab8c fc30 04c0
000003d0: c72e 5b71 ee13 1640 35bd 517c 5a2d 14c0
000003e0: c989 754f 0a00 0bc0 b7f5 e89d b2ed fcbf
000003f0: 3456 bd91 3444 14c0 70b9 08f4 e473 f9bf
00000400: 6b6d 1e6c 3175 1240 87bd 6320 a192 f4bf
00000410: 5656 96aa 0976 c1bf 3cab 2117 fad5 dcbf
00000420: 4ec7 bece 9c6f 1b40 2816 3f01 792e c53f
00000430: 188e 1510 360e a3bf 0b93 eeff 5140 18c0
00000440: b6ed d2ba e0c1 f03f 8bde cb2d c5a0 c9bf
00000450: 31fb 8506 a68d 0040 87ea 2462 a8c9 16c0
00000460: 2692 d065 3487 e1bf ed52 37bf 4011 04c0
00000470: 9a17 c182 779f 0640 fe49 c7c1 f703 04c0
00000480: a263 9fa8 a9cf febf b83b 3ba9 a6e2 20c0
00000490: a59f f724 a2b1 db3f 7ae9 6425 b717 10c0
000004a0: af2c c88a e754 e13f 97eb c370 428b febf
000004b0: bca9 db76 8d28 f3bf 220e 9517 580d f0bf
000004c0: 8e46 0b22 00e7 e8bf f2c6 6921 35bc 0cc0
000004d0: 5155 9d0c a1a7 d13f 363a 1d38 f096 e73f
000004e0: e253 9cd4 c31b 10c0 dc17 63ba 3203 02c0
000004f0: 037f d413 0dfe db3f a88e dd7a bb33 0540
00000500: 0f7c 2234 89f5 07c0 20d2 7542 13a5 1ec0
00000510: fbbd 21be d3ae c5bf c795 4d39 f6d4 f03f
00000520: 71ec 60c9 41ad f5bf eb83 6de9 3920 d03f
00000530: 9a65 5d3c 946c 10c0 085b d480 9d4a 01c0
00000540: 55a8 146b 2f1e 12c0 ef1e a14e 00d3 0740
00000550: 22d9 73c7 e608 00c0 ea9a 58b6 7cc1 14c0
00000560: af79 3040 114e fe3f d9c2 5740 bba3 1940
00000570: 9609 cc60 2436 edbf 0d47 40ee 6fb5 1640
00000580: 5c73 8b8f 364d 2640 e921 6579 447a 1b40
00000590: 01f7 58ad 2577 1240 096a d654 5ff8 f03f
000005a0: 4421 a2d7 c79a 15c0 2874 e830 6b10 f9bf
000005b0: 4aeb 8337 199b 0140 12bf 734d 1226 1040
000005c0: 7b80 e056 bfe7 f6bf f0c7 147c 22f5 01c0
000005d0: 9422 b3bd fd03 17c0 f9a0 a794 37c8 13c0
000005e0: 4b9a 7118 c424 06c0 2e2d 8879 031c 0dc0
000005f0: 571f f2c9 b8ca 0b40 cebe b6ba 78db 0240
00000600: 8c70 eb90 1cad 0340 ce56 4ee1 e5bc f3bf
00000610: e6d1 b6d9 8e62 0740 47a7 6a05 c261 f5bf
00000620: 1669 fd7e 486a f4bf ab9a 71dc 130f 0fc0
00000630: fd56 5e2b 718e 0a40 30ba 3c18 b593 f33f
00000640: dd92 8dcf 0cdc 1140 9bf4 0e00 7086 06c0
00000650: 6e1c 5e81 792c 14c0 d553 6fbd 3ea5 0740
00000660: 2c79 056d 7136 0bc0 9a27 2fbf de58 ef3f
00000670: 9890 3409 a352 07c0 e96c 8068 2a07 0340
00000680: 5dd8 d995 2131 fcbf 1bd4 a7b0 1def 01c0
00000690: 0cc2 912b 92bf fbbf 7ed4 f25a f2d2 17c0
000006a0: c4be 3a55 b56b 0bc0 6eaf cda4 0ae4 09c0
000006b0: 66d8 a293 0296 0bc0 96ee 70e0 5c28 0b40
000006c0: 76df b14e 2cdc f03f b951 92d4 496f ffbf
000006d0: 66ef 01d9 0d2c 1240 ebcd 35ad 0255 1840
000006e0: 0ace f705 d353 02c0 c8a9 73e0 e38f 72bf
000006f0: 5759 d404 a0e3 16c0 a682 22f0 351a 1340
00000700: 0786 42ac a12a 0d40 494a f127 0347 f23f
00000710: b7d6 75ec ac73 e73f 0e56 de8f f1db f2bf
00000720: 45c7 8096 27b8 1040 35ae 7b96 119b 0c40
00000730: 68a8 266f 1c9c e03f 6466 5f55 9d73 12c0
00000740: af02 3649 b28f 0b40 a3e3 8c5b 2498 ddbf
00000750: 6b83 8b44 df04 0c40 8c68 4a6b b60c 15c0
00000760: 6cdf 0623 672d de3f 8b85 cd38 8259 f5bf
00000770: 6353 7ecd 2419 df3f e4fa 2f39 79fe 05c0
00000780: 109e d02d c7b0 0f40 2f78 2221 34f2 f4bf
00000790: 2e99 df0b 9b7a f93f 3ef5 d460 fd57 b3bf
000007a0: 24e2 33a5 be42 0040 dd1c 2655 771f e9bf
000007b0: aadc e12b 3253 14c0 1b5d 9429 a903 1ac0
000007c0: 3a14 06d5 606c 06c0 6570 1d1c 4d9a 0d40
000007d0: d0cf 2a7c 23ae 1040 0c85 7c8f 1b39 03c0
000007e0: 52e7 d424 ab83 ff3f 106d 4b05 bc8c 08c0
000007f0: ff6a df4e b2e2 f8bf 1afe ff2c 1b33 0940
